digit_recognition_model.onnx (onnx, 376559 bytes, 10 tensors)

sequential/dense_1/MatMul/ReadVariableOp:0 f4 [64, 10]
0.09500956 0.31053758 0.13629979 -0.32509384 0.043038305 -0.051987175 -0.044563532 0.01658992
-0.24272695 -0.3989221 0.2354806 -0.1784211 0.1809398 -0.052726407 -0.009464 0.32252592
0.017607892 0.10067012 -0.36995265 0.07946199 -0.19315024 0.0008657152 -0.095647946 0.2621381
-0.11677909 -0.14044785 0.25493968 -0.22481893 -0.053137224 0.19422463 0.0940821 0.18250524
-0.022776375 0.0024994002 -0.20869015 -0.05383271 -0.2545722 0.058507163 0.14538345 0.07830622
-0.20553724 -0.018774102 0.24262983 0.20649882 0.01116894 -0.1713473 0.12603472 0.32310906
-0.14600973 0.15877599 -0.36895838 0.024272986 0.09094643 -0.15831222 0.028212413 -0.3084059
-0.12615706 0.27910656 0.18048748 0.058193848 -0.02311329 0.047546208 -0.40555668 0.33659345
-0.045043066 -0.017390683 0.18136716 -0.026797704 0.26812395 0.21593101 -0.14983664 -0.13046417
-0.2609814 -0.069206916 0.013657737 -0.042941067 -0.18479015 -0.040327962 0.2510797 0.12518005
-0.21309873 -0.08357289 0.12688397 0.13484572 -0.14552964 -0.036615998 0.09019096 -0.32988876
0.051540297 0.15280822 0.07571336 0.055516835 -0.11113332 -0.07204695 0.028782371 -0.10079236
-0.4641341 0.2001757 -0.22690776 0.2832987 0.02617182 -0.016542949 -0.040746316 -0.1964531
0.2697701 -0.2146063 0.16363649 -0.205645 0.07798689 -0.07870986 0.21613775 -0.15274306
-0.38018894 0.10502875 -0.071372114 -0.20710975 0.11924883 -0.20480481 0.2111123 -0.120194
-0.4630859 0.05868784 0.14879605 -0.25618067 0.34670648 -0.045578964 -0.41353345 -0.0027053652
-0.013774026 0.3125304 -0.31018198 -0.14231835 -0.08379231 -0.091721185 0.24393062 -0.03784272
0.16502126 0.32472393 -0.26236883 -0.11650479 0.010867005 -0.45597574 0.061365254 -0.19758798
-0.17312945 -0.02979126 -0.11713785 -0.22232006 -0.10566583 0.015907379 -0.031786617 0.12099271
-0.2062277 -0.10952673 -0.17044653 -0.030309737 -0.17631972 -0.07009043 -0.22022833 -0.26925278
-0.25304928 0.11405457 -0.12793225 -0.19583024 -0.25093818 -0.22122774 0.12002284 0.16629346
-0.19619872 0.059719503 -0.2777494 0.13986216 0.07381907 -0.38110578 0.015126478 -0.31651637
-0.07166409 0.00092045724 -0.2894703 0.21187708 -0.16530576 0.11524998 -0.0935196 0.1866467
0.009837391 0.111516126 0.28489095 0.15286922 0.24668771 -0.10462929 -0.20277314 0.01873563
0.044697694 0.04282846 0.20979744 0.041227028 0.21600868 0.1450796 -0.080889344 0.00079552754
0.09248888 -0.11003215 0.26833743 0.1888843 -0.22644529 -0.15703183 0.23102917 -0.36211193
-0.062307358 -0.23434421 -0.21819836 -0.12323818 0.19198178 0.13783889 -0.17556304 0.11388306
-0.2107025 -0.15376824 -0.17992523 0.21130463 0.14287521 0.12927973 -0.38677025 -0.3875348
0.1443089 0.113008074 -0.03853835 0.059386287 0.17571446 -0.06605642 -0.17271444 -0.4181493
0.14864242 -0.10607389 -0.2760373 0.2055472 0.06486274 -0.3083725 -0.40122202 0.021723669
0.2974129 -0.2054521 -0.28816128 -0.30076063 0.15970615 0.18249647 0.02833402 0.12518647
-0.3047381 0.13479576 -0.003213322 -0.30131269 0.059686046 -0.14220017 0.07880905 0.11897723
00000000: 5f94 c23d c8fe 9e3e 2c92 0b3e b372 a6be
00000010: ef48 303d 81f0 54bd 4088 36bd 95e7 873c
00000020: 6a8d 78be 843f ccbe d421 713e 05b4 36be
00000030: 4848 393e a5f7 57bd e50e 1bbc 1e22 a53e
00000040: 6d3e 903c 232c ce3d 6f6a bdbe f8bc a23d
00000050: 2dc9 45be 2af1 623a 12e3 c3bd f736 863e
00000060: e029 efbd 90d1 0fbe 7487 823e ef36 66be
00000070: 6ba6 59bd d2e2 463e 1eae c03d a7e2 3a3e
00000080: 8595 babc facc 233b dfb2 55be b07f 5cbd
00000090: 4a57 82be 35a5 6f3d 66df 143e 035f a03d
000000a0: 5b78 52be 25cc 99bc f473 783e 6d74 533e
000000b0: eefd 363c ab75 2fbe 3f0f 013e 8d6e a53e
000000c0: 9383 15be 2c96 223e 1de8 bcbe 24d8 c63c
000000d0: 1f42 ba3d 991c 22be b81d e73c 61e7 9dbe
000000e0: 512f 01be 0ee7 8e3e b6d1 383e ac5c 6e3d
000000f0: 1558 bdbc d0bf 423d 20a5 cfbe fa55 ac3e
00000100: 147f 38bd e876 8ebc 50b8 393e dc86 dbbc
00000110: 8b47 893e 051d 5d3e c76e 19be 6698 05be
00000120: 5b9f 85be 5bbc 8dbd b3c4 5f3c f9e2 2fbd
00000130: a139 3dbe ef2e 25bd 858d 803e 332f 003e
00000140: 8e36 5abe 4328 abbd dfed 013e ff14 0a3e
00000150: b905 15be a8fa 15bd 0ab6 b83d 2ee7 a8be
00000160: eb1b 533d c279 1c3e 9b0f 9b3d 9f65 633d
00000170: de99 e3bd 5a8d 93bd 02c9 eb3c 3a6c cebd
00000180: fca2 edbe dcfa 4c3e 825a 68be 870c 913e
00000190: 4966 d63c 1485 87bc 9ce5 26bd 002b 49be
000001a0: 4e1f 8a3e c1c1 5bbe 5390 273e 9a94 52be
000001b0: 97b7 9f3d a332 a1bd 3753 5d3e ad68 1cbe
000001c0: 20a8 c2be 5019 d73d 8b2b 92bd 9414 54be
000001d0: bb38 f43d 5ab8 51be d32d 583e 4628 f6bd
000001e0: 9819 edbe a962 703d fe5d 183e 1d2a 83be
000001f0: 8383 b13e 02b1 3abd a8ba d3be 7f4c 31bb
00000200: 74ac 61bc fc03 a03e 2cd0 9ebe e7bb 11be
00000210: 4d9b abbd 51d8 bbbd f3c8 793e f800 1bbd
00000220: 55fb 283e 3742 a63e 3555 86be 109a eebd
00000230: 860b 323c a775 e9be 225a 7b3d 8154 4abe
00000240: d948 31be cd0c f4bc f8e5 efbd dfa7 63be
00000250: 5467 d8bd 3150 823c af32 02bd 07cb f73d
00000260: 5b2d 53be 8d4f e0bd 8989 2ebe 204c f8bc
00000270: 288d 34be 928b 8fbd 8983 61be 80db 89be
00000280: ad8f 81be 7195 e93d ac00 03be b987 48be
00000290: f87a 80be 8689 62be 89ce f53d d548 2a3e
000002a0: 51e8 48be 709c 743d 2b35 8ebe 0738 0f3e
000002b0: 742e 973d 4c20 c3be 0cd5 773c 6f0e a2be
000002c0: 9fc4 92bd d74a 713a 7335 94be 4ef6 583e
000002d0: ea45 29be 2e08 ec3d 3487 bfbd 5020 3f3e
000002e0: 022d 213c 9162 e43d 3add 913e c089 1c3e
000002f0: b49b 7c3e e247 d6bd c3a3 4fbe 777b 993c
00000300: ee14 373d e56c 2f3d 24d5 563e acdd 283d
00000310: 6131 5d3e bf8f 143e 50a9 a5bd f38a 503a
00000320: cf6a bd3d 8958 e1bd 8663 893e e36a 413e
00000330: 46e1 67be f4cc 20be e992 6c3e bc66 b9be
00000340: 0036 7fbd eef7 6fbe 646f 5fbe 4d64 fcbd
00000350: df96 443e a325 0d3e ccc6 33be 863b e93d
00000360: 65c2 57be 6c75 1dbe 523e 38be 3e60 583e
00000370: e14d 123e e861 043e c006 c6be f66a c6be
00000380: b6c5 133e c770 e73d 64da 1dbd 093f 733d
00000390: 7eee 333e 9748 87bd 0edc 30be aa17 d6be
000003a0: b835 183e 453d d9bd c354 8dbe f77a 523e
000003b0: c2d6 843d 00e3 9dbe f96c cdbe d6f5 b13c
000003c0: 8146 983e 0962 52be e089 93be 4cfd 99be
000003d0: 028a 233e 5be0 3a3e bf1c e83c e230 003e
000003e0: a206 9cbe e607 0a3e 9996 52bb a845 9abe
000003f0: 5b79 743d ec9c 11be a466 a13d 55aa f33d

sequential/dense_1/BiasAdd/ReadVariableOp:0 f4 [10]
-0.008190048 0.05642894 -0.050605815 0.06353989 -0.01479516 -0.032361522 -0.061425693 0.008351928
0.10490666 -0.07266898
00000000: 8d2f 06bc 0822 673d 0b48 4fbd 3421 823d
00000010: 6667 72bc 848d 04bd 8299 7bbd 86d6 083c
00000020: 4ed9 d63d 79d3 94bd

sequential/dense/MatMul/ReadVariableOp:0 f4 [576, 64]
0.09485894 -0.109832376 -0.084593445 0.021641092 -0.021640247 -0.03985457 -0.06223497 -0.1515923
-0.13686909 -0.09076069 0.023768181 -0.024710562 -0.20310003 -0.047184207 -0.09682178 -0.07620636
0.070831016 -0.06325034 0.06316739 8.7306835e-05 0.12846953 0.06935169 0.072413675 -0.09866327
-0.14148276 -0.12591603 -0.0005109933 0.095018685 -0.048654597 -0.002989815 0.019777818 -0.047800247
0.0041617616 -0.079447776 0.010233587 -0.06954803 -0.035620157 0.032298904 0.01994301 -0.013661134
0.16272308 0.035776947 -0.12517278 -0.09613413 -0.006686636 0.09634379 -0.081670284 -0.010694819
0.1619768 -0.02085882 0.08253893 -0.08939614 -0.014298956 -0.09027875 -0.08387927 -0.01827468
-0.019080022 0.04298096 -0.11110195 0.054194577 0.045398027 -0.0326293 0.058282528 0.07837694
0.31652787 -0.116227314 0.0047193393 0.191312 0.2351733 -0.05494407 -0.26046085 -0.27696854
-0.13999134 -0.3818625 0.10697039 -0.12896597 -0.11041443 -0.0013424411 -0.1214923 -0.054657903
-0.0468467 0.113976136 -0.11647035 0.09949523 0.36276034 -0.009021312 -0.32151812 0.044194594
-0.17224674 0.0146505255 -0.06419708 0.23289634 0.11652137 0.39876 0.03622338 0.22739938
-0.11603296 -0.2578266 0.059427164 0.036588434 0.32543427 -0.25852498 0.28202325 0.012122908
-0.04189422 0.047899906 -0.009148359 0.12853156 0.2524706 0.12829918 0.26024225 0.18439332
-0.18294336 -0.2593277 0.31322402 -0.03550594 0.20787926 -0.052180488 0.033605188 -0.25344336
0.019813854 0.25918064 -0.22650495 -0.10906942 0.32447544 -0.0673334 -0.0056475145 -0.093334645
0.026550258 0.070469424 -0.11731976 -0.018076878 -0.057081226 -0.0476917 -0.028930334 0.07977166
0.05389073 0.11869573 0.043117553 -0.09739954 0.055742335 0.026628163 -0.0666142 0.06925324
-0.17469916 0.07514713 -0.06579161 0.011600928 -0.10326285 -0.10966754 0.075955555 0.0053157974
0.084851705 -0.14226024 0.0644921 0.060715646 0.059419233 0.0076663177 0.06278563 0.038692936
-0.14219809 0.010854728 -0.05184607 -0.06481295 0.073632024 0.00039362023 -0.18129161 -0.058258295
-0.13711743 0.07345058 -0.16903415 0.13643298 0.09389913 -0.047939308 -0.056213025 0.13347535
-0.09217411 0.012013315 -0.054049633 0.0020747094 0.061611097 0.13463905 -0.10931275 -0.06815028
-0.02296132 -0.027292803 0.00083552086 0.068072066 0.068098076 -0.10460021 0.06381976 0.10527049
-0.035422307 0.0052183466 0.0531189 0.04330518 -0.092034645 -0.00340365 -0.04429109 -0.028503884
-0.074698724 -0.07486338 0.16329847 -0.050971963 0.05272769 0.23090263 -0.06217132 -0.1176339
-0.08801608 0.082911536 0.1365608 -0.09190877 -0.057872187 -0.013145644 0.14269571 -0.013198746
-0.035206713 -0.03166092 -0.033192556 -0.15036437 0.1406659 -0.024539981 -0.07111901 0.026978215
0.03493653 -0.031724397 -0.06696771 -0.033370458 0.117170565 0.061826292 -0.2081728 -0.061220326
0.054163024 -0.1660514 0.10434749 0.05912114 0.01649104 -0.10109294 -0.03838241 0.015260199
0.0008332207 0.049743008 -0.10038669 -0.03563525 0.04440049 0.103955306 -0.08622867 -0.11092334
-0.12681794 -0.014414518 -0.12269341 0.0073448764 -0.09360395 -0.07572509 0.006973362 -0.020458773
00000000: 6745 c23d ccef e0bd 543f adbd a948 b13c
00000010: e346 b1bc 8c3e 23bd 19ea 7ebd 033b 1bbe
00000020: 6927 0cbe bee0 b9bd 7db5 c23c ce6d cabc
00000030: 74f9 4fbe 3a44 41bd 7f4a c6bd 1412 9cbd
00000040: da0f 913d 6589 81bd e85d 813d 8018 b738
00000050: 848d 033e 4208 8e3d 9f4d 943d f80f cabd
00000060: dbe0 10be 22f0 00be 2ef4 05ba 2899 c23d
00000070: 0b4a 47bd c6f0 43bb 1705 a23c 31ca 43bd
00000080: 635f 883b 84b5 a2bd c6aa 273c 336f 8ebd
00000090: 71e6 11bd db4b 043d 865f a33c f3d2 5fbc
000000a0: e1a0 263e d98a 123d 4b2d 00be f9e1 c4bd
000000b0: 911b dbbb e54f c53d c042 a7bd 5239 2fbc
000000c0: 3fdd 253e 1ee0 aabc 2c0a a93d 5315 b7bd
000000d0: 2b46 6abc 11e4 b8bd e5c8 abbd c8b4 95bc
000000e0: b54d 9cbc ce0c 303d 6b89 e3bd 22fb 5d3d
000000f0: 48f3 393d 4da6 05bd a9b9 6e3d 1784 a03d
00000100: f10f a23e 9608 eebd b0a4 9a3b 4be7 433e
00000110: 45d1 703e 080d 61bd 205b 85be d2ce 8dbe
00000120: e459 0fbe 7b83 c3be 4b13 db3d a80f 04be
00000130: f620 e2bd d9f4 afba f4d0 f8bd f7e0 5fbd
00000140: 53e2 3fbd 526c e93d 0288 eebd 28c4 cb3d
00000150: b9bb b93e 20ce 13bc 069e a4be 6405 353d
00000160: 7361 30be c208 703c c279 83bd 617c 6e3e
00000170: c2a2 ee3d 452a cc3e f85e 143d 62db 683e
00000180: b0a2 edbd d901 84be e669 733d c1dd 153d
00000190: 529f a63e 635d 84be 5a65 903e 299f 463c
000001a0: 4699 2bbd b132 443d 00e3 15bc c79d 033e
000001b0: d443 813e dc60 033e 793e 853e 9ad1 3c3e
000001c0: 8155 3bbe 9ac6 84be e65e a03e ad6e 11bd
000001d0: 4dde 543e 35bb 55bd 98a5 093d 54c3 81be
000001e0: aa50 a23c 53b3 843e eaf0 67be ca5f dfbd
000001f0: a521 a63e 18e6 89bd c90e b9bb 3c26 bfbd
00000200: ed7f d93c 4652 903d 5845 f0bd f615 94bc
00000210: 01ce 69bd 5f58 43bd 4fff ecbc 535f a33d
00000220: 87bc 5c3d bf16 f33d 089c 303d 6979 c7bd
00000230: 1352 643d 4e23 da3c 076d 88bd a5d4 8d3d
00000240: 56e4 32be bde6 993d c0bd 86bd d211 3e3c
00000250: 797b d3bd 6099 e0bd 968e 9b3d 2430 ae3b
00000260: bbc6 ad3d abac 11be 6f14 843d f8b0 783d
00000270: 9561 733d bc35 fb3b c195 803d 7c7c 1e3d
00000280: 609c 11be 07d8 313c 8b5c 54bd a7bc 84bd
00000290: 63cc 963d d05e ce39 82a4 39be 40a0 6ebd
000002a0: 8368 0cbe 426d 963d 4a17 2dbe 16b5 0b3e
000002b0: 304e c03d 025c 44bd a13f 66bd c3ad 083e
000002c0: c8c5 bcbd 7fd3 443c 2663 5dbd d9f7 073b
000002d0: eb5b 7c3d d2de 093e 5ddf dfbd 6092 8bbd
000002e0: 6119 bcbc 2895 dfbc db06 5b3a 5e69 8b3d
000002f0: 0177 8b3d a338 d6bd efb3 823d 0e98 d73d
00000300: fb16 11bd aafe aa3b 3493 593d c660 313d
00000310: a97c bcbd c50f 5fbb 936a 35bd fa80 e9bc
00000320: a5fb 98bd f951 99bd b737 273e fac7 50bd
00000330: fef8 573d bd71 6c3e 5ba7 7ebd 0bea f0bd
00000340: c641 b4bd 86cd a93d 98d6 0b3e aa3a bcbd
00000350: 630b 6dbd d460 57bc d31e 123e 8e3f 58bc
00000360: ea34 10bd e1ae 01bd ebf4 07bd 1ef9 19be
00000370: b90a 103e 1208 c9bc d8a6 91bd 6b01 dd3c
00000380: 9b19 0f3d 71f1 01bd 5e26 89bd 76af 08bd
00000390: 1ff7 ef3d 913d 7d3d 402b 55be 2ac2 7abd
000003a0: 0cda 5d3d 6109 2abe 23b4 d53d 0229 723d
000003b0: 3818 873c d109 cfbd e036 1dbd ea05 7a3c
000003c0: 7f6c 5a3a 53bf 4b3d 8997 cdbd 45f6 11bd
000003d0: 4add 353d 85e6 d43d a898 b0bd c72b e3bd
000003e0: 90dc 01be df2a 6cbc af46 fbbd 4aad f03b
000003f0: 6eb3 bfbd c215 9bbd cd80 e43b 2899 a7bc

sequential/dense/BiasAdd/ReadVariableOp:0 f4 [64]
0.044469416 -0.034345854 -0.01889378 -0.05773439 -0.025307618 -0.011775997 0.05422838 0.06013923
-0.028288288 -0.023074245 0.02491894 0.06315112 -0.01386294 0.011120089 -0.027173627 -0.020898199
-0.023286488 -0.026558913 0.06386694 -0.027653676 0.023378298 -0.09961039 0.074751124 -0.08186826
-0.03715525 -0.0612062 0.051966764 0.03421752 0.006335032 -0.04052537 -0.03486966 0.0373805
0.012964543 0.05692221 0.0649323 -0.018977694 -0.062089864 -0.027657678 0.0015836802 -0.056727055
0.077431075 -0.009207837 -0.07758448 -0.006020018 0.051345896 0.055142574 0.024827322 -0.021063542
0.06489999 -0.017795924 -0.026211718 -0.03820004 -0.010674028 0.009190431 -0.035684105 0.10828445
-0.058092803 0.027239677 -0.023164311 0.011910425 -0.06112828 -0.029543608 -0.007499747 0.073948205
00000000: 9025 363d 3dae 0cbd 21c7 9abc e57a 6cbd
00000010: ec51 cfbc 1cf0 40bc 941e 5e3d 8e54 763d
00000020: d7bc e7bc 3306 bdbc ce22 cc3c 6055 813d
00000030: 6221 63bc 0931 363c 3a9b debc b332 abbc
00000040: 4ec3 bebc 1492 d9bc accc 823d f689 e2bc
00000050: d883 bf3c 8800 ccbd 1e17 993d 8caa a7bd
00000060: 1a30 18bd 5ab3 7abd 1adb 543d ac27 0c3d
00000070: 1a96 cf3b eefd 25bd 7dd3 0ebd 4c1c 193d
00000080: 3c69 543c 4327 693d 3afb 843d 1c77 9bbc
00000090: f151 7ebd 5b92 e2bc 7d93 cf3a a15a 68bd
000000a0: 2f94 9e3d 78dc 16bc 9de4 9ebd 9243 c5bb
000000b0: 1350 523d 2edd 613d ab62 cb3c 738d acbc
000000c0: 49ea 843d c2c8 91bc f5b9 d6bc a577 1cbd
000000d0: 1ee2 2ebc 7693 163c 7f29 12bd 3dc4 dd3d
000000e0: b8f2 6dbd be25 df3c 15c3 bdbc f123 433c
000000f0: a661 7abd 7005 f2bc 70c0 f5bb 2872 973d

sequential/conv2d_2/Conv2D/ReadVariableOp:0 f4 [64, 64, 3, 3]
-0.10294565 -0.05461699 -0.14048164 -0.026531903 0.018408839 -0.07037112 -0.19391532 0.003254675
-0.08654168 -0.09752428 0.01716725 -0.07509585 -0.05699951 -0.08771174 -0.041302476 -0.03688162
0.07176616 -0.036081873 0.042228714 0.03557613 -0.11426104 -0.11673539 -0.07966687 -0.08456299
0.04780132 0.13790926 -0.078472406 0.013090761 -0.024746435 0.10021907 0.014150812 -0.17813401
-0.0404366 0.031491246 0.065853275 -0.05857849 -0.11190722 -0.1395368 0.050917774 -0.1481465
-0.08787544 -0.112874635 0.100530006 0.011982226 0.023082096 -0.10377457 0.15429439 0.00061221945
-0.0114047285 0.04775336 -0.054571457 0.010616685 -0.22645736 -0.22259401 0.0014567915 0.07789849
0.075066805 0.015829004 0.06352128 0.055714753 -0.008849671 -0.049187183 0.09122387 0.05787336
-0.059370674 -0.046532765 0.032569647 -0.040709127 -0.14938864 0.20409471 0.10222836 -0.0033135817
0.053152483 0.017938975 -0.00842733 -0.020764252 -0.11485185 -0.017269488 0.09093354 0.029746413
-0.11912092 0.12757444 0.0627578 0.108397946 0.034257546 -0.01443009 0.017655266 -0.14775568
-0.06570973 -0.10165057 0.03853323 0.09626612 0.033582285 0.04130386 -0.06309107 0.06558496
-0.003523576 0.12603739 0.03611881 0.07237558 0.100563854 0.048596073 -0.045096163 0.070779346
-0.04292372 0.059808496 0.063398816 0.054565717 0.005062147 0.14515162 0.05468087 0.058617022
0.114003226 -0.121194884 -0.021312831 -0.23428555 -0.17634423 0.037765387 -0.0011338852 0.08438801
0.04492764 -0.030787008 -0.07103606 -0.047307767 -0.13549866 -0.13084729 -0.108557574 -0.12828775
-0.03631301 0.011239168 0.019129746 -0.16874444 -0.02901878 0.07626212 0.11965012 -0.17376432
0.019348105 -0.049442913 0.04525558 0.067731425 -0.10208742 0.098087125 0.09331173 0.038029864
0.055919267 -0.10929933 -0.20831694 -0.026704704 0.003228159 -0.013703522 0.12380778 0.20705959
-0.10100806 -0.027274994 -0.0054565044 -0.015234527 0.023315845 -0.013920043 -0.012122236 -0.16800071
-0.017180385 -0.0034122425 -0.11549167 -0.1196414 -0.060088716 0.063123405 0.070826456 -0.028458023
-0.030822983 0.23523282 9.4152565e-06 0.029043859 0.016297217 0.039080705 0.09802733 -0.041886978
-0.03760376 0.033678595 -0.13788033 -0.070810504 -0.059047263 -0.07902804 -0.0749578 -0.12681106
0.058540292 -0.08154731 -0.07391201 0.062346444 -0.0043664654 0.1549609 -0.03971873 0.06250326
0.07923566 0.009792114 0.021061493 -0.054425407 -0.041459847 -0.04662311 0.027255448 -0.038936198
-0.218448 -0.0155128725 -0.0043047885 -0.015323175 0.050547045 0.07821957 -0.12952444 0.051613335
0.084570855 -0.019087233 0.052315593 -0.04891978 0.037372597 0.06525021 -0.013461756 -0.079182744
-0.15372448 -0.018986277 -0.068034165 0.046947885 0.010129172 0.0051388214 0.0753932 0.015717737
-0.07841628 -0.12486146 -0.051707525 0.0759646 -0.039815694 -0.06317774 -0.07658975 -0.037317704
-0.0009581324 -0.068217196 -0.00790928 -0.10227198 -0.1464185 0.05083064 0.0097335735 -0.052390356
0.12332541 0.13663471 0.03902984 -0.17350782 -0.09301492 -0.13774593 -0.112171434 -0.31940937
-0.13430369 0.12943324 0.14979778 -0.070412435 -0.012101625 -0.06916311 0.07868337 0.027105669
00000000: 2bd5 d2bd 11b6 5fbd 6bda 0fbe 6f59 d9bc
00000010: 22ce 963c bc1e 90bd bd91 46be 634c 553b
00000020: c43c b1bd cfba c7bd 55a2 8c3c dacb 99bd
00000030: 5178 69bd 36a2 b3bd c92c 29bd 2e11 17bd
00000040: 23fa 923d 96ca 13bd 04f8 2c3d 47b8 113d
00000050: b101 eabd f712 efbd 6228 a3bd 5c2f adbd
00000060: 51cb 433d 1638 0d3e 24b6 a0bd a27a 563c
00000070: 09b9 cabc a83f cd3d cfd8 673c c368 36be
00000080: d9a0 25bd f7fc 003d 15de 863d 00f0 6fbd
00000090: 9d2f e5bd bce2 0ebe 288f 503d b7b3 17be
000000a0: 0af8 b3bd d12a e7bd ade2 cd3d 1951 443c
000000b0: aa16 bd3c c387 d4bd 59ff 1d3e 5a7d 203a
000000c0: e6da 3abc 0799 433d 5286 5fbd 9bf1 2d3c
000000d0: 70e4 67be afef 63be d0f1 be3a 3e89 9f3d
000000e0: a0bc 993d d4ab 813c 7217 823d 2735 643d
000000f0: 36fe 10bc 8078 49bd 95d3 ba3d 9e0c 6d3d
00000100: aa2e 73bd 2499 3ebd c067 053d 9dbe 26bd
00000110: 56f9 18be 34fe 503e 1a5d d13d ad28 59bb
00000120: 6bb6 593d c2f4 923c c912 0abc cb19 aabc
00000130: 7237 ebbd be78 8dbc 5d3b ba3d c0ae f33c
00000140: abf5 f3bd e0a2 023e 2987 803d beff dd3d
00000150: a451 0c3d 2f6c 6cbc c7a1 903c 444d 17be
00000160: d392 86bd 2d2e d0bd 05d5 1d3d 2c27 c53d
00000170: 948d 093d 3c2e 293d e435 81bd 6851 863d
00000180: cceb 66bb f20f 013e 51f1 133d a639 943d
00000190: 6cf4 cd3d ad0c 473d c1b6 38bd c3f4 903d
000001a0: c8d0 2fbd c1f9 743d 3dd7 813d 4d80 5f3d
000001b0: 5ee0 a53b a0a2 143e 0cf9 5f3d 6718 703d
000001c0: 867a e93d 0635 f8bd 3f98 aebc 8de8 6fbe
000001d0: 9593 34be e1af 1a3d e09e 94ba 9fd3 ac3d
000001e0: 0c06 383d 0935 fcbc 5b7b 91bd cac5 41bd
000001f0: 29c0 0abe d5fc 05be 6f53 debd dd5d 03be
00000200: f3bc 14bd 7d24 383c fcb5 9c3c 58cb 2cbe
00000210: cbb8 edbc 502f 9c3d 1f0b f53d 46ef 31be
00000220: eb7f 9e3c a784 4abd ea5d 393d c6b6 8a3d
00000230: 3613 d1bd e7e1 c83d 381a bf3d 34c5 1b3d
00000240: 9a0b 653d 54d8 dfbd 0951 55be d3c3 dabc
00000250: 858f 533b bd84 60bc ef8e fd3d 6e07 543e
00000260: 50dd cebd cf6f dfbc 7acc b2bb 3d9a 79bc
00000270: df00 bf3c e410 64bc 589c 46bc 6108 2cbe
00000280: e1bd 8cbc ee9f 5fbb e686 ecbd 8d06 f5bd
00000290: 961f 76bd d846 813d 760d 913d cd20 e9bc
000002a0: 7b80 fcbc dfe0 703e 38f6 1d37 63ed ed3c
000002b0: be81 853c 1713 203d 8ec2 c83d ae91 2bbd
000002c0: 6606 1abd 91f2 093d 8030 0dbe 1905 91bd
000002d0: 8bdb 71bd 74d9 a1bd 7a83 99bd c2da 01be
000002e0: f2c7 6f3d 4702 a7bd 2e5f 97bd fc5e 7f3d
000002f0: 9114 8fbb 12ae 1e3e 1bb0 22bd b601 803d
00000300: 4e46 a23d 1a6f 203c 2789 ac3c 2ded 5ebd
00000310: cdd1 29bd e0f7 3ebd d146 df3c 907b 1fbd
00000320: d5b0 5fbe b429 7ebc 2f0f 8dbb 0e0e 7bbc
00000330: 6b0a 4f3d 9531 a03d 0ea2 04be 8168 533d
00000340: 7c33 ad3d d45c 9cbc e048 563d 1b60 48bd
00000350: 0214 193d e7a1 853d b28e 5cbc 902a a2bd
00000360: f369 1dbe 1c89 9bbc 7f55 8bbd 6d4c 403d
00000370: d4f4 253c 8f63 a83b c067 9a3d 7cc2 803c
00000380: b798 a0bd 5db7 ffbd 45cb 53bd 5493 9b3d
00000390: c815 23bd 5563 81bd 16db 9cbd 73da 18bd
000003a0: 2d2b 7bba 75b5 8bbd ed95 01bc f973 d1bd
000003b0: bbee 15be ca33 503d 9179 1f3c 4597 56bd
000003c0: 0892 fc3d f8e9 0b3e c1dd 1f3d 09ac 31be
000003d0: 9b7e bebd 450d 0dbe 23ba e5bd a089 a3be
000003e0: e886 09be 268a 043e 9764 193e 6534 90bd
000003f0: e545 46bc 63a5 8dbd bf24 a13d b50c de3c

sequential/conv2d_2/BiasAdd/ReadVariableOp:0 f4 [64]
-0.0407487 0.037091006 -0.012986409 0.015263249 -0.001971956 -0.052846693 -0.038221974 0.031938955
-0.047626264 0.050768726 -0.04232346 0.0020709317 -0.06776433 -0.053811755 -0.039227765 0.011458302
-0.011937402 0.033984836 -0.038103413 -0.0049096597 0.02018344 -0.0022169994 0.058129743 -0.03532708
-0.0012089344 0.024841182 0.0039918977 -0.012268755 0.015250303 -0.016461857 -0.05477043 0.0071257483
-0.052395694 -0.08457061 0.03259634 -0.027041927 -0.018377954 0.027135136 -0.03510441 -0.04459354
0.019526232 -0.0022353893 -0.030799864 0.022916004 -0.03782562 -0.019637335 -0.0036363765 -0.011611438
-0.031860206 -0.00058654754 -0.00985126 0.028886637 0.033159263 -0.013681914 -0.017243855 0.011222374
0.021945637 -0.013029462 -0.083671845 0.040773343 0.008277126 0.012110068 -0.011323357 -0.012825478
00000000: 1ce8 26bd bdec 173d f2c4 54bc b512 7a3c
00000010: ef3b 01bb c675 58bd a58e 1cbd 6cd2 023d
00000020: c213 43bd def2 4f3d 5d5b 2dbd 78b8 073b
00000030: 06c8 8abd b769 5cbd 4bad 20bd 9abb 3b3c
00000040: 1895 43bc af33 0b3d 5312 1cbd 36e1 a0bb
00000050: be57 a53c 144b 11bb 7419 6e3d 21b3 10bd
00000060: 1b75 9eba bc7f cb3c 77ce 823b e302 49bc
00000070: 68dc 793c 04db 86bc f556 60bd 1c7f e93b
00000080: de9c 56bd 5b33 adbd bd83 053d 0887 ddbc
00000090: 5d8d 96bc 814a de3c a4c9 0fbd b7a7 36bd
000000a0: 7af5 9f3c 9c7f 12bb ff4f fcbc 58ba bb3c
000000b0: 0aef 1abd 7ade a0bc 4650 6ebb e73d 3ebc
000000c0: d97f 02bd 8ac2 19ba 2e67 21bc aba3 ec3c
000000d0: 02d2 073d 1b2a 60bc fc42 8dbc 0cde 373c
000000e0: 56c7 b33c 8679 55bc 255c abbd f301 273d
000000f0: c89c 073c 4f69 463c 9a85 39bc f421 52bc

sequential/conv2d_1/Conv2D/ReadVariableOp:0 f4 [64, 32, 3, 3]
-0.19307634 -0.039384633 -0.047121637 0.11732493 0.096711494 0.10021237 -0.101143174 0.00441567
-0.095643476 0.1739516 -0.019313715 -0.056943484 0.06663062 0.17796773 0.19879055 -0.016894726
-0.055476174 -0.13637747 0.111144975 0.2038411 0.09639687 -0.15031496 -0.0062930486 0.14724526
0.15188454 0.07846041 0.15249978 -0.12229514 -0.021158185 -0.054354817 -0.07792045 0.028100215
0.012880789 0.027657494 -0.13284199 -0.048987273 -0.09015513 -0.048115127 -0.12684971 -0.055540953
0.05430607 -0.013588762 -0.031283967 -0.0070058233 -0.06441976 -0.09149201 0.077448934 -0.026494186
-0.028228944 0.06899328 -0.017909903 -0.051792573 -0.07816925 -0.061464015 0.21279357 0.13343388
0.048303068 -0.17172231 -0.07577747 0.0034722167 -0.119542986 -0.044140983 -0.19864726 -0.042609125
-0.10840534 -0.11838089 0.019463915 -0.023427187 -0.056425124 -0.06486571 -0.047607046 -0.12610926
-0.06621913 -0.013455723 -0.10303289 -0.1026193 -0.020460706 -0.09071354 0.003762044 -0.056967407
-0.10869072 0.074710004 -0.048375223 -0.02529104 -0.02184392 0.16229573 0.08159793 0.03303524
-0.12371443 -0.14068419 -0.053448167 -0.025110867 -0.1109601 0.026441736 0.1351429 0.03671492
-0.08999687 -0.056397483 -0.10227172 -0.02033858 -0.098299846 -0.061266176 -0.13501078 0.04247793
0.09948663 0.028919583 -0.13340922 -0.113931485 -0.03823908 0.0099252025 -0.0108058015 -0.10607944
0.016086925 -0.042070314 0.038069073 0.20380677 0.13387665 0.06317913 -0.12035599 -0.014553072
-0.052035984 -0.09842223 0.03167151 0.01685484 -0.12568943 -0.08757143 0.07033843 0.08965555
-0.115222774 0.007757933 0.06410571 0.07973783 -0.18434057 -0.16409117 -0.16130938 0.1904083
-0.16693877 -0.050087843 0.06745386 -0.038654663 0.0017864625 0.034791935 -0.03977844 -0.1086165
0.023882683 -0.1077502 -0.0031133785 -0.019921506 0.1245118 0.058048964 -0.03032031 -0.17945747
-0.068352245 -0.037709653 -0.042179126 -0.12456139 0.23187637 0.034197003 0.08660507 -0.021736102
-0.19373247 -0.22022206 0.05654472 -0.035307914 -0.037034914 -0.04523441 0.09831492 -0.017555652
0.106647655 0.093748465 0.06893314 0.09442928 0.14821851 0.0022970862 -0.11545209 -0.05440338
0.08517089 -0.07123172 0.04457362 -0.0051321047 -0.045741614 -0.10271507 -0.05932031 -0.10035295
0.11572689 0.161915 -0.028307987 -0.0022463116 -0.09906373 -0.024825297 0.04668317 -0.08191502
-0.016142119 -0.11849244 -0.076837406 0.026954541 -0.058252458 -0.060124267 0.065488175 -0.11864323
-0.16300136 0.10252505 0.23527071 0.0572869 0.04003304 -0.01842122 -0.1614843 -0.066008046
-0.14071518 -0.2179674 -0.04063318 0.11326621 0.114792444 -0.083258174 0.05259136 -0.036068827
-0.18475397 -0.111686684 -0.056992356 0.12577704 0.09673554 0.16148806 -0.14538574 -0.050885126
-0.12331407 -0.045064718 -0.055696096 -0.10599814 -0.021489205 0.076013036 -0.017341865 -0.043209907
-0.071584545 -0.14442742 -0.05514758 0.03349219 -0.030975189 0.031860434 0.10875091 0.017624246
0.10156037 0.020896373 0.053543005 0.02945058 0.07217886 -0.011609545 -0.10937861 -0.0055333357
0.089736246 0.06433294 0.065389834 -0.10871891 -0.21336348 -0.0985783 0.27365524 0.04576837
00000000: ceb5 45be c851 21bd 9e02 41bd 0e48 f03d
00000010: ad10 c63d 253c cd3d 2724 cfbd 53b1 903b
00000020: bae0 c3bd 5e20 323e cc37 9ebc 923d 69bd
00000030: a275 883d 2c3d 363e c08f 4b3e cf66 8abc
00000040: fc3a 63bd 89a6 0bbe fa9f e33d b9bb 503e
00000050: b96b c53d 2aec 19be eb35 cebb 76c7 163e
00000060: 9f87 1b3e daaf a03d e728 1c3e e075 fabd
00000070: ee53 adbc 28a3 5ebd c294 9fbd 6c32 e63c
00000080: f209 533c f891 e23c bb07 08be e1a6 48bd
00000090: 41a3 b8bd 5e14 45bd e4e4 01be e97e 63bd
000000a0: 0b70 5e3d 66a3 5ebc 9e23 00bd 1b91 e5bb
000000b0: 82ee 83bd 2a60 bbbd 8c9d 9e3d 560a d9bc
000000c0: 6340 e7bc 594c 8d3d cab7 92bc 7324 54bd
000000d0: 3317 a0bd b1c1 7bbd 8fe6 593e e4a2 083e
000000e0: 70d9 453d f9d7 2fbe 3831 9bbd 218e 633b
000000f0: f4d2 f4bd 2dcd 34bd 306a 4bbe e886 2ebd
00000100: 9e03 debd ae71 f2bd ca72 9f3c 5fea bfbc
00000110: 081e 67bd 50d8 84bd 9bff 42bd c922 01be
00000120: e59d 87bd 6575 5cbc e802 d3bd 112a d2bd
00000130: 369d a7bc 05c8 b9bd a08c 763b a856 69bd
00000140: 3d99 debd 8f01 993d 1925 46bd 282f cfbc
00000150: 05f2 b2bc da30 263e d11c a73d f64f 073d
00000160: fe5d fdbd 840f 10be 77ec 5abd 4eb5 cdbc
00000170: 0d3f e3bd 579c d83c e662 0a3e 6262 163d
00000180: 4750 b8bd 0c01 67bd d673 d1bd 189d a6bc
00000190: 6e51 c9bd 3ef2 7abd 4440 0abe 57fd 2d3d
000001a0: a5bf cb3d c3e8 ec3c 6d9c 08be e954 e9bd
000001b0: 95a0 1cbd 519d 223c d10a 31bc 2d40 d9bd
000001c0: bac8 833c ec51 2cbd 51ee 1b3d b9b2 503e
000001d0: f616 093e 0f64 813d 347d f6bd 0270 6ebc
000001e0: af23 55bd 9891 c9bd fcb9 013d 2913 8a3c
000001f0: bbb4 00be a658 b3bd 980d 903d 549d b73d
00000200: ebf9 ebbd 4236 fe3b db49 833d 964d a33d
00000210: c6c3 3cbe 8407 28be 492e 25be 65fa 423e
00000220: fff1 2abe e928 4dbd 4025 8a3d 5a54 1ebd
00000230: bc27 ea3a fd81 0e3d b8ee 22bd 5472 debd
00000240: 9ea5 c33c 23ac dcbd d309 4cbb 6d32 a3bc
00000250: 0b00 ff3d c0c4 6d3d 4c62 f8bc b3c3 37be
00000260: 43fc 8bbd 7075 1abd 05c4 2cbd 0b1a ffbd
00000270: 0071 6d3e 2812 0c3d 005e b13d e90f b2bc
00000280: ce61 46be e481 61be 709b 673d 089f 10bd
00000290: ecb1 17bd b747 39bd 5559 c93d dfd0 8fbc
000002a0: 166a da3d 32ff bf3d d12c 8d3d 2364 c13d
000002b0: 98c6 173e b68a 163b 2572 ecbd 14d6 5ebd
000002c0: 136e ae3d f0e1 91bd d492 363d 372b a8bb
000002d0: 8f5b 3bbd 475c d2bd daf9 72bd d985 cdbd
000002e0: 3802 ed3d 0ccd 253e 27e6 e7bc db36 13bb
000002f0: ede1 cabd 6c5e cbbc da36 3f3d 10c3 a7bd
00000300: 7a3c 84bc 2aac f2bd ee5c 9dbd c5cf dc3c
00000310: 219a 6ebd dd44 76bd aa1e 863d 39fb f2bd
00000320: d4e9 26be a7f8 d13d ceea 703e aba5 6a3d
00000330: aff9 233d 19e8 96bc 245c 25be 3a2f 87bd
00000340: a417 10be d932 5fbe fa6e 26bd 1df8 e73d
00000350: 4d18 eb3d 4383 aabd 0a6a 573d e8bc 13bd
00000360: 2530 3dbe fdbb e4bd d170 69bd b2cb 003e
00000370: 481d c63d 205d 253e 00e0 14be ec6c 50bd
00000380: 168c fcbd c895 38bd 9721 64bd 8e15 d9bd
00000390: 210a b0bc b9ac 9b3d 8710 8ebc dffc 30bd
000003a0: eb9a 92bd c8e4 13be 6ee2 61bd 1b2f 093d
000003b0: aebf fdbc 1680 023d ccb8 de3d b960 903c
000003c0: e2fe cf3d df2e ab3c e94f 5b3d 5842 f13c
000003d0: 83d2 933d f635 3ebc e501 e0bd fc50 b5bb
000003e0: a3c7 b73d fdc0 833d 1beb 853d 05a8 debd
000003f0: f57b 5abe 6be3 c9bd 8a1c 8c3e 9d77 3b3d

sequential/conv2d_1/BiasAdd/ReadVariableOp:0 f4 [64]
-0.04835936 -0.015704053 -0.0984098 -0.024669966 -0.051864572 -0.08187889 -0.06301539 -0.089070104
-0.011957361 -0.006852057 0.00043025988 -0.049959756 -0.062392607 -0.04922249 -0.11056778 -0.0012185486
-0.07019647 -0.017443987 -0.123468705 -0.079409935 -0.08142293 0.021748634 -0.011108135 0.0008017408
0.00091697957 -0.031454153 -0.015551697 -0.039240345 -0.051809974 0.02900845 -0.04405102 -0.05891417
-0.0019214357 -0.069491565 -0.09161079 -0.04816853 -0.02571929 0.005455119 0.005854646 -0.038741358
-0.004206442 0.0610249 -0.047813136 -0.035045035 -0.05044099 -0.058913305 -0.027363895 -0.058233507
-0.09714375 -0.031670813 0.02475001 -0.081161454 -0.079514824 -0.051061094 -0.011412896 -0.06605662
-0.008624743 -0.095951796 0.027329778 -0.09881194 -0.011442302 -0.08108724 -0.060435165 -0.009941591
00000000: 7714 46bd c9a5 80bc 148b c9bd ab18 cabc
00000010: f26f 54bd 1fb0 a7bd 360e 81bd 636a b6bd
00000020: cfe8 43bc 3887 e0bb 8194 e139 9aa2 4cbd
00000030: 648f 7fbd 869d 49bd 5c71 e2bd b5b7 9fba
00000040: 2bc3 8fbd b1e6 8ebc 29dd fcbd ada1 a2bd
00000050: 11c1 a6bd 312a b23c e5fe 35bc ea2b 523a
00000060: 7561 703a 12d6 00bd 8ccc 7ebc 7cba 20bd
00000070: b236 54bd 21a3 ed3c d86e 34bd fc4f 71bd
00000080: afd8 fbba 9851 8ebd 709e bbbd 5d4c 45bd
00000090: 43b1 d2bc dbc0 b23b 55d8 bf3b 42af 1ebd
000000a0: 31d6 89bb 3ff5 793d b5d7 43bd 628b 0fbd
000000b0: 369b 4ebd 144f 71bd 3f2a e0bc 4286 6ebd
000000c0: 4df3 c6bd 41b9 01bd 88c0 ca3c fa37 a6bd
000000d0: abd8 a2bd 7025 51bd 28fd 3abc b148 87bd
000000e0: cb4e 0dbc 6082 c4bd b3e2 df3c ea5d cabd
000000f0: 7e78 3bbc 1111 a6bd dd8a 77bd 0ee2 22bc

sequential/conv2d/Conv2D/ReadVariableOp:0 f4 [32, 1, 3, 3]
-0.011027483 -0.20414004 -0.20267744 0.068575025 -0.13001455 0.03092845 0.14856753 0.17798251
0.11813756 -0.22913076 -0.073462754 0.01807301 0.032514825 0.2416626 0.105239615 -0.020897562
0.084114216 -0.18069668 0.19583546 0.0628019 0.26040792 -0.011227364 -0.26612303 -0.26405048
-0.14341718 -0.0616985 -0.031015715 -0.108056754 0.096989356 -0.18309969 -0.03719187 0.077204004
-0.13479091 -0.15376453 0.10110523 0.069231905 0.0017817974 0.09852566 -0.21305084 0.058718562
0.16634211 0.1291109 -0.11857917 0.040106203 -0.0192661 0.141211 -0.018057695 0.0076858923
-0.14776981 0.08096698 -0.10891054 -0.10723629 0.15189694 0.0793422 0.25599766 -0.07050647
-0.381533 0.2518272 0.02759067 -0.45459378 0.18431567 -0.012660786 -0.32840335 0.1035055
0.16155596 0.013981968 0.06599176 0.010848598 0.059224088 0.12587272 0.17271942 -0.015705798
-0.05683708 0.07431859 0.08876146 -0.09295635 0.067230254 0.036102187 -0.014719249 0.15772608
0.07985583 0.007930827 0.07941808 -0.21498337 -0.012819963 0.19341038 0.11490533 -0.007998752
0.029053003 -0.046979666 -0.2304574 -0.04666369 -0.12018131 -0.20753945 0.10966708 0.15456061
0.0022383805 0.25060397 -0.007056372 -0.07600552 0.059531566 -0.16800714 -0.107864946 0.13717331
0.22605349 -0.13035509 -0.21816798 0.09878107 0.24929641 0.19403529 0.13981172 -0.098284796
0.13766044 0.029701138 -0.38649148 -0.3691454 -0.05093526 0.017965281 -0.054698072 -0.016014844
0.005166107 0.2183388 0.14994898 -0.19293526 -0.19978316 0.088361904 -0.28636372 -0.1370732
0.23997742 -0.42537993 0.122304596 0.2208394 -0.05024593 0.07424766 0.17219634 -0.2451643
0.028796611 -0.0049053216 0.061172087 0.15354718 -0.06275245 0.06530645 0.16663134 -0.34931844
-0.055192985 0.06907103 -0.20623647 -0.09031628 0.07063448 0.16902575 0.11549506 0.12925644
-0.21045431 0.1980148 -0.2664044 -0.30479988 0.22004595 -0.04958005 -0.04939464 0.09158077
0.16505496 0.16809797 0.15631677 0.10603485 0.15907772 0.13201833 0.17732354 0.011837259
-0.31151682 -0.39154166 -0.2219588 0.08290291 0.23640859 0.06399559 0.3221359 0.13687165
-0.24603644 0.02720964 -0.28903627 -0.3040078 -0.21033385 -0.13083823 -0.12681077 -0.113908194
0.057168666 0.21236391 -0.05105208 -0.1673354 0.107111946 0.034349777 0.1180123 0.18371923
-0.12207071 0.17408623 0.323843 -0.44910723 -0.2103794 0.059154376 -0.027750872 -0.2188482
0.013800844 -0.10490938 0.101487026 0.14067405 0.19479533 -0.014928998 -0.057440653 -0.1928623
-0.103705354 0.028411498 0.02065372 0.07053323 0.1438878 0.005887903 0.098081715 -0.009533014
-0.104820624 -0.38538337 -0.26533177 0.2403947 0.04203239 -0.17164657 0.17613073 0.24928051
0.22067904 0.075910956 -0.04047515 -0.07234618 0.012294266 -0.115938134 -0.03509938 -0.037511755
0.07782641 0.08804099 -0.034653045 0.15765883 0.12499998 0.0018175517 -0.021272877 0.14399306
0.052535072 -0.30521768 -0.25223473 0.03518463 -0.015169305 -0.113434374 0.22414339 0.10899738
0.097415596 -0.083715625 -0.21309449 -0.23377475 0.27047205 0.1398746 -0.23563305 -0.4814477
00000000: 9eac 34bc 160a 51be ad8a 4fbe 1071 8c3d
00000010: 8922 05be a95d fd3c 1622 183e 0c41 363e
00000020: 1bf2 f13d 41a1 6abe a473 96bd d90d 943c
00000030: 442e 053d 6776 773e de87 d73d 5d31 abbc
00000040: 1344 ac3d 8d08 39be 1789 483e 489e 803d
00000050: 3054 853e faf2 37bc 4741 88be a031 87be
00000060: f4db 12be 91b7 7cbd ab14 febc dc4c ddbd
00000070: 5ba2 c63d 7c7e 3bbe 8156 18bd 221d 9e3d
00000080: a106 0abe 7374 1dbe 4210 cf3d 75c9 8d3d
00000090: 338b e93a d2c7 c93d 002a 5abe e082 703d
000000a0: 9655 2a3e a635 043e a3d9 f2bd 6746 243d
000000b0: f1d3 9dbc 9e99 103e bbed 93bc f0d9 fb3b
000000c0: f850 17be 04d2 a53d 7d0c dfbd b39e dbbd
000000d0: df8a 1b3e 2a7e a23d 2012 833e b265 90bd
000000e0: 4b58 c3be 7fef 803e d405 e23c 84c0 e8be
000000f0: 3fbd 3c3e 2f6f 4fbc 7c24 a8be b1fa d33d
00000100: ed6e 253e a014 653c b026 873d 51be 313c
00000110: f594 723d c7e4 003e 5cdd 303e 72a9 80bc
00000120: ffcd 68bd 5834 983d 91c8 b53d e65f bebd
00000130: 04b0 893d e3df 133d 0129 71bc f282 213e
00000140: 748b a33d 4df0 013c f2a5 a23d 9a24 5cbe
00000150: d20a 52bc 5f0d 463e 7c53 eb3d 330d 03bc
00000160: 9000 ee3c c06d 40bd 06fd 6bbe 6d22 3fbd
00000170: 9e21 f6bd 3985 54be 2299 e03d 2345 1e3e
00000180: cbb1 123b 2a4f 803e 2339 e7bb c8a8 9bbd
00000190: 5fd7 733d 100a 2cbe 4ce8 dcbd 2977 0c3e
000001a0: 917a 673e ce7b 05be 6d67 5fbe bb4d ca3d
000001b0: 8f47 7f3e 30b1 463e ce2a 0f3e 8a49 c9bd
000001c0: dcf6 0c3e cd4f f33c 36e2 c5be a000 bdbe
000001d0: 7ea1 50bd ed2b 933c 160b 60bd 9031 83bc
000001e0: 7248 a93b 3594 5f3e 3a8c 193e d290 45be
000001f0: f593 4cbe 16f7 b43d 449e 92be eb5c 0cbe
00000200: a4bc 753e 66cb d9be d57a fa3d b923 623e
00000210: adce 4dbd 280f 983d 3d54 303e 5a0c 7bbe
00000220: dfe6 eb3c d2bc a0bb 958f 7a3d 793b 1d3e
00000230: 5b84 80bd 63bf 853d 68a1 2a3e ded9 b2be
00000240: 0a12 62bd 1d75 8d3d a72f 53be bef7 b8bd
00000250: cfa8 903d 1615 2d3e ad88 ec3d cd5b 043e
00000260: 5681 57be 64c4 4a3e 2866 88be bb0e 9cbe
00000270: ba53 613e 7314 4bbd 0952 4abd b38e bb3d
00000280: 2b04 293e e021 2c3e 8111 203e cd28 d93d
00000290: 45e5 223e d02f 073e 4d94 353e 10f1 413c
000002a0: 227f 9fbe 2678 c8be 2b49 63be 00c9 a93d
000002b0: 1815 723e 1f10 833d ffee a43e 1528 0c3e
000002c0: faf0 7bbe c0e6 de3c 90fc 93be e9a6 9bbe
000002d0: c261 57be 75fa 05be afda 01be b348 e9bd
000002e0: b129 6a3d ed75 593e fc1b 51bd f959 2bbe
000002f0: 825d db3d 5ab2 0c3d 6fb0 f13d e520 3c3e
00000300: 3500 fabd a943 323e c0ce a53e 62f1 e5be
00000310: b36d 57be dc4b 723d cc55 e3bc be19 60be
00000320: ef1c 623c bbda d6bd 6ed8 cf3d dc0c 103e
00000330: 6d78 473e c298 74bc e446 6bbd b27d 45be
00000340: 7963 d4bd 3bbf e83c fd31 a93c ba73 903d
00000350: 5357 133e 4fef c03b 11df c83d 5c30 1cbc
00000360: 32ac d6bd f850 c5be 91d9 87be 072a 763e
00000370: 282a 2c3d 1ec4 2fbe 9d5b 343e 6443 7f3e
00000380: b0f9 613e 3477 9b3d 45c9 25bd 3c2a 94bd
00000390: e46d 493c f970 edbd 5ec4 0fbd eda5 19bd
000003a0: 7463 9f3d d64e b43d 5af0 0dbd 5171 213e
000003b0: fdff ff3d ea3a ee3a 7544 aebc eb72 133e
000003c0: 042f 573d 7e45 9cbe e924 81be c21d 103d
000003d0: ad88 78bc 4850 e8bd d885 653e 053a df3d
000003e0: d481 c73d 1973 abbd 7135 5abe a662 6fbe
000003f0: 507b 8a3e 4a3b 0f3e ca49 71be 5080 f6be

sequential/conv2d/BiasAdd/ReadVariableOp:0 f4 [32]
-0.03930523 -0.06689375 -0.0052328724 -0.0038903991 -0.09622932 -0.09345908 0.03761845 -0.12506604
-0.12788175 -0.078829296 -0.02627286 -0.018477222 0.017365895 -0.069053374 -0.021138495 -0.024760362
-0.0042597596 -0.08990186 0.027165709 -0.04265113 -0.01911282 -0.0260669 -0.04576139 -0.12816574
0.00010606804 -0.13683197 -0.008952596 -0.018305123 -0.002218224 -0.13578275 -0.128592 0.0020129515
00000000: 85fe 20bd 97ff 88bd 8478 abbb 11f6 7ebb
00000010: e113 c5bd 7967 bfbd ce15 1a3d 5011 00be
00000020: 6ff3 02be 4171 a1bd 2e3a d7bc 8b5d 97bc
00000030: ec42 8e3c db6b 8dbd a32a adbc 3ed6 cabc
00000040: 7495 8bbb 771e b8bd 9f8a de3c f4b2 2ebd
00000050: 7d92 9cbc 408a d5bc 4c70 3bbd e13d 03be
00000060: d870 de38 ae1d 0cbe e9ad 12bc a0f4 95bc
00000070: a05f 11bb a20a 0bbe 9fad 03be b9eb 033b
